…
I0516 19:04:13.580942 14907 net.cpp:296] The NetState phase (0) differed from the phase (1) specified by a rule in layer mnist
I0516 19:04:13.580967 14907 net.cpp:296] The NetState phase (0) differed from the phase (1) specified by a rule in layer accuracy
I0516 19:04:13.580991 14907 net.cpp:53] Initializing net from parameters:
name: "LeNet"
state {
  phase: TRAIN
}
layer {
  name: "mnist"
  type: "Data"
  top: "data"
  top: "label"
  include {
    phase: TRAIN
  }
  transform_param {
    scale: 0.00390625
  }
  data_param {
    source: "../../../dataset/MNIST/train-lmdb"
    batch_size: 64
    backend: LMDB
  }
}
layer {
  name: "conv1"
  type: "Convolution"
  bottom: "data"
  top: "conv1"
  param {
    lr_mult: 1
  }
  param {
    lr_mult: 2
  }
  convolution_param {
    num_output: 20
    kernel_size: 5
    stride: 1
    weight_filler {
      type: "xavier"
    }
    bias_filler {
      type: "constant"
    }
  }
}
layer {
  name: "pool1"
  type: "Pooling"
  bottom: "conv1"
  top: "pool1"
  pooling_param {
    pool: MAX
    kernel_size: 2
    stride: 2
  }
}
layer {
  name: "conv2"
  type: "Convolution"
  bottom: "pool1"
  top: "conv2"
  param {
    lr_mult: 1
  }
  param {
    lr_mult: 2
  }
  convolution_param {
    num_output: 50
    kernel_size: 5
    stride: 1
    weight_filler {
      type: "xavier"
    }
    bias_filler {
      type: "constant"
    }
  }
}
layer {
  name: "pool2"
  type: "Pooling"
  bottom: "conv2"
  top: "pool2"
  pooling_param {
    pool: MAX
    kernel_size: 2
    stride: 2
  }
}
layer {
  name: "ip1"
  type: "InnerProduct"
  bottom: "pool2"
  top: "ip1"
  param {
    lr_mult: 1
  }
  param {
    lr_mult: 2
  }
  inner_product_param {
    num_output: 500
    weight_filler {
      type: "xavier"
    }
    bias_filler {
      type: "constant"
    }
  }
}
layer {
  name: "relu1"
  type: "ReLU"
  bottom: "ip1"
  top: "ip1"
}
layer {
  name: "ip2"
  type: "InnerProduct"
  bottom: "ip1"
  top: "ip2"
  param {
    lr_mult: 1
  }
  param {
    lr_mult: 2
  }
  inner_product_param {
    num_output: 10
    weight_filler {
      type: "xavier"
    }
    bias_filler {
      type: "constant"
    }
  }
}
layer {
  name: "loss"
  type: "SoftmaxWithLoss"
  bottom: "ip2"
  bottom: "label"
  top: "loss"
}
I0516 19:04:13.581365 14907 layer_factory.hpp:77] Creating layer mnist
I0516 19:04:13.581492 14907 db_lmdb.cpp:35] Opened lmdb ../../../dataset/MNIST/train-lmdb
I0516 19:04:13.581535 14907 net.cpp:86] Creating Layer mnist
I0516 19:04:13.581549 14907 net.cpp:382] mnist -> data
I0516 19:04:13.581588 14907 net.cpp:382] mnist -> label
I0516 19:04:13.581632 14907 data_layer.cpp:45] output data size: 64,1,28,28
I0516 19:04:13.581904 14907 net.cpp:124] Setting up mnist
I0516 19:04:13.581923 14907 net.cpp:131] Top shape: 64 1 28 28 (50176)
I0516 19:04:13.581944 14907 net.cpp:131] Top shape: 64 (64)
I0516 19:04:13.581954 14907 net.cpp:139] Memory required for data: 200960
I0516 19:04:13.581969 14907 layer_factory.hpp:77] Creating layer conv1
I0516 19:04:13.582005 14907 net.cpp:86] Creating Layer conv1
I0516 19:04:13.582016 14907 net.cpp:408] conv1 <- data
I0516 19:04:13.582037 14907 net.cpp:382] conv1 -> conv1
I0516 19:04:13.582118 14907 net.cpp:124] Setting up conv1
I0516 19:04:13.582134 14907 net.cpp:131] Top shape: 64 20 24 24 (737280)
I0516 19:04:13.582146 14907 net.cpp:139] Memory required for data: 3150080
I0516 19:04:13.582170 14907 layer_factory.hpp:77] Creating layer pool1
I0516 19:04:13.582188 14907 net.cpp:86] Creating Layer pool1
I0516 19:04:13.582201 14907 net.cpp:408] pool1 <- conv1
I0516 19:04:13.582214 14907 net.cpp:382] pool1 -> pool1
I0516 19:04:13.582243 14907 net.cpp:124] Setting up pool1
I0516 19:04:13.582252 14907 net.cpp:131] Top shape: 64 20 12 12 (184320)
I0516 19:04:13.582264 14907 net.cpp:139] Memory required for data: 3887360
I0516 19:04:13.582275 14907 layer_factory.hpp:77] Creating layer conv2
I0516 19:04:13.582293 14907 net.cpp:86] Creating Layer conv2
I0516 19:04:13.582302 14907 net.cpp:408] conv2 <- pool1
I0516 19:04:13.582316 14907 net.cpp:382] conv2 -> conv2
I0516 19:04:13.582800 14907 net.cpp:124] Setting up conv2
I0516 19:04:13.582813 14907 net.cpp:131] Top shape: 64 50 8 8 (204800)
I0516 19:04:13.582825 14907 net.cpp:139] Memory required for data: 4706560
I0516 19:04:13.582839 14907 layer_factory.hpp:77] Creating layer pool2
I0516 19:04:13.582854 14907 net.cpp:86] Creating Layer pool2
I0516 19:04:13.582862 14907 net.cpp:408] pool2 <- conv2
I0516 19:04:13.582873 14907 net.cpp:382] pool2 -> pool2
I0516 19:04:13.582888 14907 net.cpp:124] Setting up pool2
I0516 19:04:13.582898 14907 net.cpp:131] Top shape: 64 50 4 4 (51200)
I0516 19:04:13.582908 14907 net.cpp:139] Memory required for data: 4911360
I0516 19:04:13.582914 14907 layer_factory.hpp:77] Creating layer ip1
I0516 19:04:13.582933 14907 net.cpp:86] Creating Layer ip1
I0516 19:04:13.582940 14907 net.cpp:408] ip1 <- pool2
I0516 19:04:13.582950 14907 net.cpp:382] ip1 -> ip1
I0516 19:04:13.587538 14907 net.cpp:124] Setting up ip1
I0516 19:04:13.587566 14907 net.cpp:131] Top shape: 64 500 (32000)
I0516 19:04:13.587575 14907 net.cpp:139] Memory required for data: 5039360
I0516 19:04:13.587589 14907 layer_factory.hpp:77] Creating layer relu1
I0516 19:04:13.587599 14907 net.cpp:86] Creating Layer relu1
I0516 19:04:13.587608 14907 net.cpp:408] relu1 <- ip1
I0516 19:04:13.587617 14907 net.cpp:369] relu1 -> ip1 (in-place)
I0516 19:04:13.587630 14907 net.cpp:124] Setting up relu1
I0516 19:04:13.587635 14907 net.cpp:131] Top shape: 64 500 (32000)
I0516 19:04:13.587641 14907 net.cpp:139] Memory required for data: 5167360
I0516 19:04:13.587647 14907 layer_factory.hpp:77] Creating layer ip2
I0516 19:04:13.587656 14907 net.cpp:86] Creating Layer ip2
I0516 19:04:13.587661 14907 net.cpp:408] ip2 <- ip1
I0516 19:04:13.587669 14907 net.cpp:382] ip2 -> ip2
I0516 19:04:13.587739 14907 net.cpp:124] Setting up ip2
I0516 19:04:13.587745 14907 net.cpp:131] Top shape: 64 10 (640)
I0516 19:04:13.587750 14907 net.cpp:139] Memory required for data: 5169920
I0516 19:04:13.587757 14907 layer_factory.hpp:77] Creating layer loss
I0516 19:04:13.587774 14907 net.cpp:86] Creating Layer loss
I0516 19:04:13.587779 14907 net.cpp:408] loss <- ip2
I0516 19:04:13.587782 14907 net.cpp:408] loss <- label
I0516 19:04:13.587790 14907 net.cpp:382] loss -> loss
I0516 19:04:13.587805 14907 layer_factory.hpp:77] Creating layer loss
…
I0516 19:04:13.588243 14907 solver.cpp:190] Creating test net (#0) specified by net file: ../../../dataset/MNIST/lenet_train.prototxt
I0516 19:04:13.588279 14907 net.cpp:296] The NetState phase (1) differed from the phase (0) specified by a rule in layer mnist
I0516 19:04:13.588299 14907 net.cpp:53] Initializing net from parameters:
name: "LeNet"
state {
  phase: TEST
}
layer {
  name: "mnist"
  type: "Data"
  top: "data"
  top: "label"
  include {
    phase: TEST
  }
  transform_param {
    scale: 0.00390625
  }
  data_param {
    source: "../../../dataset/MNIST/test-lmdb"
    batch_size: 100
    backend: LMDB
  }
}
layer {
  name: "conv1"
  type: "Convolution"
  bottom: "data"
  top: "conv1"
  param {
    lr_mult: 1
  }
  param {
    lr_mult: 2
  }
  convolution_param {
    num_output: 20
    kernel_size: 5
    stride: 1
    weight_filler {
      type: "xavier"
    }
    bias_filler {
      type: "constant"
    }
  }
}
layer {
  name: "pool1"
  type: "Pooling"
  bottom: "conv1"
  top: "pool1"
  pooling_param {
    pool: MAX
    kernel_size: 2
    stride: 2
  }
}
layer {
  name: "conv2"
  type: "Convolution"
  bottom: "pool1"
  top: "conv2"
  param {
    lr_mult: 1
  }
  param {
    lr_mult: 2
  }
  convolution_param {
    num_output: 50
    kernel_size: 5
    stride: 1
    weight_filler {
      type: "xavier"
    }
    bias_filler {
      type: "constant"
    }
  }
}
layer {
  name: "pool2"
  type: "Pooling"
  bottom: "conv2"
  top: "pool2"
  pooling_param {
    pool: MAX
    kernel_size: 2
    stride: 2
  }
}
layer {
  name: "ip1"
  type: "InnerProduct"
  bottom: "pool2"
  top: "ip1"
  param {
    lr_mult: 1
  }
  param {
    lr_mult: 2
  }
  inner_product_param {
    num_output: 500
    weight_filler {
      type: "xavier"
    }
    bias_filler {
      type: "constant"
    }
  }
}
layer {
  name: "relu1"
  type: "ReLU"
  bottom: "ip1"
  top: "ip1"
}
layer {
  name: "ip2"
  type: "InnerProduct"
  bottom: "ip1"
  top: "ip2"
  param {
    lr_mult: 1
  }
  param {
    lr_mult: 2
  }
  inner_product_param {
    num_output: 10
    weight_filler {
      type: "xavier"
    }
    bias_filler {
      type: "constant"
    }
  }
}
layer {
  name: "accuracy"
  type: "Accuracy"
  bottom: "ip2"
  bottom: "label"
  top: "accuracy"
  include {
    phase: TEST
  }
}
layer {
  name: "loss"
  type: "SoftmaxWithLoss"
  bottom: "ip2"
  bottom: "label"
  top: "loss"
}
I0516 19:04:13.588572 14907 layer_factory.hpp:77] Creating layer mnist
I0516 19:04:13.588655 14907 db_lmdb.cpp:35] Opened lmdb ../../../dataset/MNIST/test-lmdb
I0516 19:04:13.588683 14907 net.cpp:86] Creating Layer mnist
I0516 19:04:13.588693 14907 net.cpp:382] mnist -> data
I0516 19:04:13.588704 14907 net.cpp:382] mnist -> label
I0516 19:04:13.588719 14907 data_layer.cpp:45] output data size: 100,1,28,28
I0516 19:04:13.588796 14907 net.cpp:124] Setting up mnist
I0516 19:04:13.588804 14907 net.cpp:131] Top shape: 100 1 28 28 (78400)
I0516 19:04:13.588819 14907 net.cpp:131] Top shape: 100 (100)
I0516 19:04:13.588827 14907 net.cpp:139] Memory required for data: 314000
I0516 19:04:13.588835 14907 layer_factory.hpp:77] Creating layer label_mnist_1_split
I0516 19:04:13.588845 14907 net.cpp:86] Creating Layer label_mnist_1_split
I0516 19:04:13.588852 14907 net.cpp:408] label_mnist_1_split <- label
I0516 19:04:13.588863 14907 net.cpp:382] label_mnist_1_split -> label_mnist_1_split_0
I0516 19:04:13.588876 14907 net.cpp:382] label_mnist_1_split -> label_mnist_1_split_1
I0516 19:04:13.588889 14907 net.cpp:124] Setting up label_mnist_1_split
I0516 19:04:13.588896 14907 net.cpp:131] Top shape: 100 (100)
I0516 19:04:13.588905 14907 net.cpp:131] Top shape: 100 (100)
I0516 19:04:13.588914 14907 net.cpp:139] Memory required for data: 314800
I0516 19:04:13.588922 14907 layer_factory.hpp:77] Creating layer conv1
I0516 19:04:13.588937 14907 net.cpp:86] Creating Layer conv1
I0516 19:04:13.588944 14907 net.cpp:408] conv1 <- data
I0516 19:04:13.588954 14907 net.cpp:382] conv1 -> conv1
I0516 19:04:13.588989 14907 net.cpp:124] Setting up conv1
I0516 19:04:13.588997 14907 net.cpp:131] Top shape: 100 20 24 24 (1152000)
I0516 19:04:13.589006 14907 net.cpp:139] Memory required for data: 4922800
I0516 19:04:13.589020 14907 layer_factory.hpp:77] Creating layer pool1
I0516 19:04:13.589031 14907 net.cpp:86] Creating Layer pool1
I0516 19:04:13.589053 14907 net.cpp:408] pool1 <- conv1
I0516 19:04:13.589063 14907 net.cpp:382] pool1 -> pool1
I0516 19:04:13.589078 14907 net.cpp:124] Setting up pool1
I0516 19:04:13.589084 14907 net.cpp:131] Top shape: 100 20 12 12 (288000)
I0516 19:04:13.589093 14907 net.cpp:139] Memory required for data: 6074800
I0516 19:04:13.589102 14907 layer_factory.hpp:77] Creating layer conv2
I0516 19:04:13.589114 14907 net.cpp:86] Creating Layer conv2
I0516 19:04:13.589120 14907 net.cpp:408] conv2 <- pool1
I0516 19:04:13.589130 14907 net.cpp:382] conv2 -> conv2
I0516 19:04:13.589417 14907 net.cpp:124] Setting up conv2
I0516 19:04:13.589424 14907 net.cpp:131] Top shape: 100 50 8 8 (320000)
I0516 19:04:13.589435 14907 net.cpp:139] Memory required for data: 7354800
I0516 19:04:13.589447 14907 layer_factory.hpp:77] Creating layer pool2
I0516 19:04:13.589457 14907 net.cpp:86] Creating Layer pool2
I0516 19:04:13.589464 14907 net.cpp:408] pool2 <- conv2
I0516 19:04:13.589473 14907 net.cpp:382] pool2 -> pool2
I0516 19:04:13.589484 14907 net.cpp:124] Setting up pool2
I0516 19:04:13.589490 14907 net.cpp:131] Top shape: 100 50 4 4 (80000)
I0516 19:04:13.589501 14907 net.cpp:139] Memory required for data: 7674800
I0516 19:04:13.589509 14907 layer_factory.hpp:77] Creating layer ip1
I0516 19:04:13.589519 14907 net.cpp:86] Creating Layer ip1
I0516 19:04:13.589524 14907 net.cpp:408] ip1 <- pool2
I0516 19:04:13.589535 14907 net.cpp:382] ip1 -> ip1
I0516 19:04:13.593719 14907 net.cpp:124] Setting up ip1
I0516 19:04:13.593739 14907 net.cpp:131] Top shape: 100 500 (50000)
I0516 19:04:13.593751 14907 net.cpp:139] Memory required for data: 7874800
I0516 19:04:13.593767 14907 layer_factory.hpp:77] Creating layer relu1
I0516 19:04:13.593780 14907 net.cpp:86] Creating Layer relu1
I0516 19:04:13.593787 14907 net.cpp:408] relu1 <- ip1
I0516 19:04:13.593798 14907 net.cpp:369] relu1 -> ip1 (in-place)
I0516 19:04:13.593811 14907 net.cpp:124] Setting up relu1
I0516 19:04:13.593816 14907 net.cpp:131] Top shape: 100 500 (50000)
I0516 19:04:13.593824 14907 net.cpp:139] Memory required for data: 8074800
I0516 19:04:13.593832 14907 layer_factory.hpp:77] Creating layer ip2
I0516 19:04:13.593847 14907 net.cpp:86] Creating Layer ip2
I0516 19:04:13.593854 14907 net.cpp:408] ip2 <- ip1
I0516 19:04:13.593864 14907 net.cpp:382] ip2 -> ip2
I0516 19:04:13.593935 14907 net.cpp:124] Setting up ip2
I0516 19:04:13.593942 14907 net.cpp:131] Top shape: 100 10 (1000)
I0516 19:04:13.593951 14907 net.cpp:139] Memory required for data: 8078800
I0516 19:04:13.593961 14907 layer_factory.hpp:77] Creating layer ip2_ip2_0_split
I0516 19:04:13.593971 14907 net.cpp:86] Creating Layer ip2_ip2_0_split
I0516 19:04:13.593977 14907 net.cpp:408] ip2_ip2_0_split <- ip2
I0516 19:04:13.593987 14907 net.cpp:382] ip2_ip2_0_split -> ip2_ip2_0_split_0
I0516 19:04:13.593997 14907 net.cpp:382] ip2_ip2_0_split -> ip2_ip2_0_split_1
I0516 19:04:13.594008 14907 net.cpp:124] Setting up ip2_ip2_0_split
I0516 19:04:13.594014 14907 net.cpp:131] Top shape: 100 10 (1000)
I0516 19:04:13.594022 14907 net.cpp:131] Top shape: 100 10 (1000)
I0516 19:04:13.594030 14907 net.cpp:139] Memory required for data: 8086800
I0516 19:04:13.594038 14907 layer_factory.hpp:77] Creating layer accuracy
I0516 19:04:13.594053 14907 net.cpp:86] Creating Layer accuracy
I0516 19:04:13.594058 14907 net.cpp:408] accuracy <- ip2_ip2_0_split_0
I0516 19:04:13.594067 14907 net.cpp:408] accuracy <- label_mnist_1_split_0
I0516 19:04:13.594076 14907 net.cpp:382] accuracy -> accuracy
…
